model_dict/dense_model.pth (torch, 874864 bytes, 6 tensors)

input.weight f4 [256, 784]
0	0xbcb22df0	-0.02175042
1	0x3d04446b	0.03229181
2	0x3d04d75d	0.03243195
3	0xbd024f0e	-0.031813674
4	0x3a1090c0	0.00055147335
5	0x3c820e34	0.015875913
6	0x3bafd0c8	0.005365465
7	0x3d0c7ced	0.034298826
8	0x3c339550	0.010960892
9	0x3bbaa318	0.005695712
10	0xbc696758	-0.0142458305
11	0xbbb4b578	-0.005514797
12	0x3ccd0e4e	0.025031235
13	0x3b6684e0	0.0035174415
14	0xbd08b5b3	-0.033376407
15	0xb8d5f400	-0.0001020208
16	0x3c58d210	0.013233677
17	0xbcbe8a6c	-0.023259364
18	0xbd0e6818	-0.03476724
19	0x3cee88fe	0.029118057
20	0x3cc424b2	0.023943279
21	0x3c9ebcda	0.01937716
22	0x3ce6f04e	0.028190758
23	0x3d0e6799	0.034766767
24	0x3cd09bb2	0.025464866
25	0xbb87d4f8	-0.004145261
26	0xbc7f85c0	-0.015595853
27	0x3c36e204	0.011162285
28	0xbcdb7e45	-0.026793608
29	0x3c22b174	0.009930003
30	0x3c05e17c	0.008171435
31	0x3c956aa6	0.01823933
32	0xbc1a01ae	-0.0093998145
33	0xbce774bc	-0.028253905
34	0xbcf11245	-0.029427657
35	0xbd059bc4	-0.032619253
36	0xbbe85518	-0.007090222
37	0xbd0d4f60	-0.034499526
38	0xbc6c0f96	-0.014408013
39	0xbc529328	-0.012852468
40	0xbd0bf1aa	-0.034166016
41	0xbd06f3be	-0.032947294
42	0xbc81daa9	-0.015851336
43	0x3bc89d15	0.0061222413
44	0x3c8b48b1	0.017002435
45	0xbc8e77e7	-0.017391158
46	0x3b454a28	0.0030104015
47	0x3cba80f0	0.02276656
48	0x3c592330	0.013253018
49	0xb98cc90f	-0.0002685268
50	0x3cec13f9	0.028818117
51	0x3c2a2439	0.010384613
52	0x3c6be474	0.014397729
53	0x3b837718	0.004012
54	0x3c8f9a78	0.017529711
55	0x3cc9eb9a	0.024648476
56	0x3c9e61da	0.019333769
57	0x3c9073fe	0.017633434
58	0x3cda083e	0.026615258
59	0x3b0c05a0	0.0021365657
60	0xb9932558	-0.00028065848
61	0xbc1b92fc	-0.009495493
62	0xbd114656	-0.03546747
63	0xbbff4223	-0.0077898665
64	0x3cb01b5e	0.021497425
65	0x3cc01e18	0.02345185
66	0x3c9eee93	0.01940087
67	0xbc810118	-0.015747592
68	0x3cf899a9	0.030346708
69	0xbab50657	-0.0013811094
70	0x3ca53fb8	0.020171985
71	0x3c9f29ae	0.019429054
72	0xbcfb1d0a	-0.030653495
73	0x3cdf2847	0.027240885
74	0x3d108a41	0.0352881
75	0x3c2345a2	0.009965332
76	0x3d01751b	0.03160582
77	0xbb14c531	-0.0022700543
78	0xbd01d103	-0.03169347
79	0x3cb2b33e	0.021813985
80	0x3cfa5cf0	0.030561894
81	0x3d0ea4c0	0.034825087
82	0xbc3e1820	-0.011602432
83	0xbab93160	-0.0014129095
84	0x3d027257	0.031847324
85	0x3c2b32b4	0.0104491
86	0x3cf29a85	0.029614696
87	0x3bdb83e0	0.0066990703
88	0xbb8d40e7	-0.0043107155
89	0x3bc6661f	0.0060546543
90	0x3c2b8da7	0.010470784
91	0x3cb207f0	0.0217323
92	0xbc3b7561	-0.0114415595
93	0x3d1bff63	0.038085353
94	0x3d18b3f8	0.037281007
95	0x3bfdf8eb	0.0077506206
96	0x3cf44186	0.0298164
97	0xbc89f3a0	-0.016839802
98	0xbc1962ed	-0.009361965
99	0x3b8eed48	0.004361782
100	0x3ccd2d5c	0.025046043
101	0xbc464a46	-0.012102669
102	0xbca11cf4	-0.019667126
103	0xbc8ccaf2	-0.017186616
104	0xbbb6da15	-0.0055801966
105	0xbc8bdceb	-0.017073115
106	0x3cd0ee49	0.025504248
107	0xbcc69124	-0.02423913
108	0xbcbb082e	-0.022831049
109	0x3bedefd4	0.0072612558
110	0x3c61bd2b	0.013778011
111	0x3cf3cf12	0.029761825
112	0x3ce87662	0.028376762
113	0xbc3b67a0	-0.01143828
114	0x3bff784b	0.0077963225
115	0xbbe67c97	-0.0070338952
116	0xb9ff02b1	-0.00048639395
117	0xbb846f04	-0.0040415544
118	0xbb76804b	-0.003761309
119	0xbb96ff0a	-0.0046080397
120	0xbcd3f924	-0.025875635
121	0xbca2e924	-0.01988656
122	0xba76777c	-0.000940196
123	0x3c02768e	0.007962836
124	0xbce357cb	-0.027751824
125	0x3c1536f0	0.009107336
126	0x3c99f2a3	0.018792456
127	0xbca50e6a	-0.020148475
128	0x3cc76346	0.02433933
129	0xb9c9cf29	-0.00038492054
130	0xbc1ea30f	-0.009682431
131	0xbce86818	-0.028369948
132	0xbd00498d	-0.031320143
133	0xbc927c23	-0.017881459
134	0xbc80981c	-0.015697531
135	0x3b9a843a	0.0047154697
136	0x3cf82e1f	0.03029543
137	0x3cdaee70	0.026725024
138	0x3ccdebdb	0.025136879
139	0x3ba797b0	0.005114518
140	0x3c94f35c	0.018182449
141	0xbcc957a5	-0.024577925
142	0xbd091eed	-0.03347676
143	0x3be3be2e	0.0069501614
144	0xbc975cb2	-0.018476818
145	0x3bf4c3c4	0.007469626
146	0x3cb1f718	0.021724269
147	0x3ca18d95	0.019720832
148	0xba8fd22e	-0.0010972673
149	0xbc795926	-0.015219009
150	0x3d0241f9	0.031801198
151	0xba912df2	-0.0011076315
152	0xbcaceab1	-0.021108003
153	0x3c525ae2	0.012839051
154	0xbb5b021b	-0.0033418003
155	0xbc8199be	-0.01582038
156	0x39d83a3a	0.00041242113
157	0xbd24d4b8	-0.040241927
158	0xbbf881a6	-0.0075838147
159	0xbc035105	-0.008014922
160	0x3c353c73	0.0110617755
161	0xbc8d7581	-0.017267944
162	0x3b7298ea	0.0037017413
163	0xbc71efa8	-0.014766611
164	0xbc323ed6	-0.010879239
165	0xbc68a6d6	-0.014199933
166	0xbca7dcdd	-0.020491058
167	0x3d036e5d	0.032087673
168	0x3cc3ac1a	0.023885775
169	0xbae41400	-0.001740098
170	0xbcd0ff01	-0.02551222
171	0xbc9cc28a	-0.019135732
172	0xbcb846e5	-0.022494743
173	0x3a357565	0.0006922095
174	0x3cf5efcb	0.030021569
175	0x3cf1e358	0.029527351
176	0x3d07d731	0.033164207
177	0xbcd14a1d	-0.025548035
178	0xbc00755f	-0.007840483
179	0x3cce4e61	0.025183858
180	0xbcd8a177	-0.02644418
181	0x3c8cf511	0.0172067
182	0xbd001597	-0.03127059
183	0xbca9e041	-0.020736815
184	0xbc720598	-0.0147718415
185	0xbcded962	-0.027203266
186	0x3ca7dc1e	0.020490702
187	0x39a74166	0.00031901448
188	0xbd0cde89	-0.034391914
189	0x3bcdc260	0.006279275
190	0x3beb9412	0.007189282
191	0x3b86bbe2	0.004111753
192	0x3c17a73f	0.009256183
193	0x3c39249f	0.011300235
194	0x3c14f46e	0.00909148
195	0xbbdb817f	-0.0066987867
196	0x3c204b94	0.009783644
197	0xbcf9bdb3	-0.030485963
198	0x3c24c32c	0.010056298
199	0xbc99c392	-0.018770013
200	0xbbaa0cff	-0.0051895375
201	0xbcf3b54b	-0.029749533
202	0x3cf37211	0.029717477
203	0x3cb2d4ca	0.021829981
204	0xbce7e12c	-0.028305613
205	0x3cd24717	0.025668664
206	0xbcf10709	-0.0294223
207	0xbc3c4f57	-0.0114935255
208	0xbb8187ae	-0.003952942
209	0xbcc81bee	-0.02442738
210	0xbd2d4fc7	-0.04231241
211	0x3c88d49c	0.016702943
212	0xbc480d5c	-0.012210216
213	0x3c6f3563	0.014600131
214	0xbcc3fc3e	-0.02392399
215	0x3ce44aca	0.027867693
216	0x3cd1c14a	0.025604863
217	0x3c88aac4	0.01668299
218	0x3bef718e	0.007307238
219	0x3ce81cca	0.02833404
220	0xbb68c457	-0.0035517418
221	0x3c4bf988	0.01244963
222	0x3b94a140	0.004535824
223	0x3c310e7b	0.010806675
224	0x3c25d95b	0.010122622
225	0x3cf6d06a	0.030128676
226	0xbc37eb7b	-0.0112255765
227	0x3ce564c8	0.028002158
228	0x3b1bc024	0.0023765648
229	0x3cd18466	0.025575828
230	0x3cdfa26d	0.02729913
231	0xbcb95cdf	-0.022627292
232	0xbcaf0618	-0.02136521
233	0x3c3c22f5	0.011482944
234	0x3c5c1da6	0.013434803
235	0x3ce05c18	0.027387664
236	0xbc8e77db	-0.017391136
237	0x3c9f6593	0.019457614
238	0xb914b362	-0.00014181205
239	0xbce345ef	-0.027743308
240	0x3c875a1f	0.016522465
241	0x3d097660	0.033560157
242	0x3b9d7bbf	0.0048060114
243	0xbc69edd7	-0.014277897
244	0xbbcf4f4c	-0.0063265916
245	0xbc9c48af	-0.019077627
246	0xbb897e69	-0.0041959775
247	0xbb7e1275	-0.0038768325
248	0xbd0ea031	-0.03482074
249	0x3c5a6668	0.01333008
250	0xbba4c6fb	-0.005028603
251	0x3c747637	0.014920763
252	0x3a354dc0	0.00069161877
253	0x3ce7b779	0.028285729
254	0xba4148c1	-0.0007373207
255	0x3d0b0ba0	0.033946633

input.bias f4 [256]
0	0x3cdb21c3	0.026749497
1	0x3c814daf	0.015784113
2	0x3ce30c88	0.027715936
3	0xbbc93fc7	-0.006141636
4	0x3c9e82c6	0.019349467
5	0x3ca68c9c	0.02033072
6	0x3c1ac318	0.009445928
7	0xbcdfa9df	-0.02730268
8	0xbc303116	-0.0107538905
9	0xb99225cd	-0.00027875454
10	0x3c6ac5f8	0.014329426
11	0xbc497c85	-0.012297754
12	0xbc8ade11	-0.016951593
13	0x3c6f1be9	0.014594057
14	0xbcd544e6	-0.02603383
15	0xbc4f51ed	-0.01265381
16	0xbc8bf644	-0.017085202
17	0x3c5e0557	0.013551078
18	0x3ce92f73	0.028465008
19	0xbc43c601	-0.011949063
20	0x3cd7feff	0.026366709
21	0xbce09b13	-0.027417695
22	0xbc4388a3	-0.011934432
23	0xbca866e9	-0.020556884
24	0xbc9a2014	-0.018814124
25	0xbc1c3e5c	-0.009536352
26	0xbd0febe8	-0.035137087
27	0xbce550ce	-0.027992632
28	0x3c9ddeb9	0.019271242
29	0xbd083daa	-0.033261932
30	0x3be219c2	0.006900043
31	0x3d0d1091	0.034439627
32	0x3d0b56f5	0.034018476
33	0xbcf3352e	-0.029688444
34	0x3ca82ee0	0.020530164
35	0xbc9e45ab	-0.01932033
36	0xba1989a4	-0.0005856997
37	0xbcd528c6	-0.026020419
38	0xbb0b769e	-0.0021280418
39	0xbc23308d	-0.009960306
40	0x3c2a8507	0.010407693
41	0x3c2e4b55	0.010638078
42	0x3ccc229e	0.02491885
43	0xbc7bc09f	-0.015365749
44	0x3c52b831	0.0128612975
45	0xbd11832f	-0.035525497
46	0x3ce09cfd	0.027418608
47	0x3c05ec5a	0.008174026
48	0xbcbd50eb	-0.023109874
49	0xbc097f14	-0.008392114
50	0x3d00a341	0.03140569
51	0xbcb375dc	-0.021906786
52	0x3c8d3e17	0.01724152
53	0xbb72a0f0	-0.0037022196
54	0xbc52ba7f	-0.012861847
55	0x3c0c4c65	0.008563136
56	0x3bcdee1c	0.0062844884
57	0x3a93f429	0.0011287975
58	0x3b934d62	0.0044953087
59	0x3cb5af39	0.02217828
60	0x3ce4da02	0.027935985
61	0xbcd1be09	-0.025603311
62	0x3cb0cbce	0.021581557
63	0xbce8d0e9	-0.028419929
64	0xbcc6dabc	-0.024274223
65	0x3c0f8feb	0.00876234
66	0xbabae463	-0.0014258738
67	0xbc20a0ef	-0.009803995
68	0x3cae4384	0.021272428
69	0x3cf456ec	0.029826604
70	0xbd0e98ef	-0.034813818
71	0x3b638cd2	0.0034721387
72	0x3b1cfa40	0.0023952872
73	0x3bcf6e93	0.00633032
74	0xbcafdc6c	-0.02146741
75	0xbc7439f9	-0.0149064
76	0xbd02f157	-0.03196844
77	0xbabdb3f9	-0.0014473192
78	0xbcb7a50d	-0.02241757
79	0xbc94e7d3	-0.018176949
80	0x3ccd4ae3	0.025060123
81	0xbccbbadf	-0.02486938
82	0x3d0052a9	0.03132883
83	0x3caddf8c	0.02122476
84	0x3b54b4d9	0.0032456426
85	0x3c9184a8	0.01776345
86	0xbc3e4580	-0.01161325
87	0xbcdb6bc8	-0.026784793
88	0xbcf35181	-0.02970195
89	0x3cedc1ea	0.02902313
90	0x3ce965b7	0.028490884
91	0xbc026945	-0.0079596685
92	0x3bd95db5	0.006633485
93	0x3c23c0f2	0.009994732
94	0x3cce5520	0.025187075
95	0xbcc198f5	-0.023632506
96	0x3cfb9c6d	0.030714238
97	0xbc069a05	-0.008215432
98	0x3c2e595e	0.010641424
99	0xbc714778	-0.014726512
100	0xbb53a0eb	-0.003229196
101	0x3bb9aa9a	0.0056660892
102	0xbb0e6608	-0.0021728296
103	0x3c32bb01	0.010908843
104	0x3c04a426	0.008095777
105	0xbb917f75	-0.004440243
106	0xbb9cf6ec	-0.0047901776
107	0xbd0162a5	-0.031588215
108	0xbcaa117f	-0.020760296
109	0xbbfe7cbd	-0.007766335
110	0x3c93aa89	0.018025653
111	0xbcb14887	-0.021641029
112	0x3c58c9a7	0.013231671
113	0x3c6a6543	0.014306369
114	0x3cc86b70	0.024465293
115	0x3d05a525	0.032628197
116	0xbd0aa0c2	-0.033844717
117	0xbbfb48b9	-0.0076685813
118	0xbc285388	-0.010273822
119	0x3cd6b88a	0.026211042
120	0xbd091351	-0.033465687
121	0x3d06af9d	0.03288232
122	0x3d122ffb	0.03569029
123	0xbcd07977	-0.025448544
124	0xbd0c7a1f	-0.03429615
125	0x3cb2dc77	0.021833641
126	0xbc3c54fa	-0.011494869
127	0xbca3bc0a	-0.019987125
128	0xbd0dd542	-0.034627207
129	0x3cb5d389	0.022195594
130	0xbc3a1a15	-0.0113587575
131	0x3d0d778d	0.03453784
132	0xbcf30c85	-0.029669056
133	0x3b8b2dce	0.0042474037
134	0x3cda3771	0.026637765
135	0x3bd1ffae	0.006408653
136	0xbc39afd2	-0.011333423
137	0xbc6ce737	-0.014459423
138	0xbb3285ed	-0.002724047
139	0x3cbe40bf	0.023224233
140	0x3be0a8d2	0.0068560624
141	0x3c5b898d	0.013399494
142	0x3ce5fb2f	0.028073875
143	0x3d040d55	0.032239277
144	0x3cd15bd1	0.025556477
145	0x3c6c7490	0.014432088
146	0x3cb06caf	0.0215362
147	0x3c84a19b	0.01619034
148	0xbcce256a	-0.025164325
149	0x3c941556	0.01807658
150	0x3cd1e9dd	0.02562421
151	0xbcf85348	-0.03031315
152	0xbca44731	-0.020053478
153	0xbce71f1e	-0.02821308
154	0x3c2a3ced	0.010390502
155	0x3c5df6f3	0.013547647
156	0xbbb89bf7	-0.005633827
157	0x3b7ff6e6	0.0039057075
158	0x3b8c854a	0.00428835
159	0xbce26d53	-0.02764002
160	0xbc83ea7b	-0.01610302
161	0x3aa682f3	0.0012703821
162	0x3c83ae84	0.016074426
163	0x3c6213a2	0.013798626
164	0x3cd44150	0.02591005
165	0x3cd69fc5	0.02619923
166	0x3c2487d7	0.010042152
167	0xbc9b064a	-0.018923897
168	0xbc75200d	-0.014961255
169	0x3cdeed49	0.027212756
170	0xbc912bdf	-0.017721115
171	0x3cec798a	0.028866548
172	0xbc8dbf03	-0.017302996
173	0xbc50f1f9	-0.012753003
174	0x3cb61222	0.022225443
175	0xbae210e6	-0.0017247468
176	0xbcca7eee	-0.024718728
177	0x3bbf38d7	0.0058356333
178	0x3bb8ded3	0.005641797
179	0xbcdb2e83	-0.026755577
180	0x3b70299f	0.0036645902
181	0x3cb7dc9b	0.02244406
182	0x3c6b732b	0.01437072
183	0xbd06df50	-0.03292781
184	0xbb33de42	-0.0027445708
185	0xbc9ff7ed	-0.0195274
186	0xbbb08fda	-0.005388242
187	0x3c3936e5	0.011304592
188	0xbcd5ab4e	-0.026082661
189	0xbcf09b61	-0.029370965
190	0x3ca46d36	0.020071607
191	0x3c41ec8a	0.01183618
192	0xbcddd646	-0.027079713
193	0xbba2ef5c	-0.0049723815
194	0xbba69c78	-0.0050845705
195	0xbb078450	-0.002067823
196	0x3b4f6f8b	0.0031652178
197	0xbce573a4	-0.028009243
198	0x3d033edf	0.03204238
199	0x3b8ae533	0.0042387485
200	0x3ac2985a	0.001484643
201	0x3c357045	0.01107413
202	0xbc158eca	-0.009128282
203	0xbca7decf	-0.020491986
204	0x3cfe1c12	0.031019244
205	0xbcb9306a	-0.022606093
206	0x3c59a71d	0.013284472
207	0xb816e23a	-3.5973477e-05
208	0xbbc83c5b	-0.0061107106
209	0xbc7cb3c0	-0.015423715
210	0x3cb4da79	0.022076832
211	0xbcb96e9c	-0.02263575
212	0x3cb8c3ee	0.022554364
213	0xbc659905	-0.0140135335
214	0x3ab9e12e	0.0014181489
215	0xbcde985b	-0.027172258
216	0x3d0d25a4	0.034459725
217	0xbba166cf	-0.004925586
218	0xbcc5d0da	-0.02414744
219	0xbc83d1d5	-0.016091267
220	0x3cded410	0.027200729
221	0xbc7fbb29	-0.015608587
222	0xbce74350	-0.02823034
223	0xbc2b257d	-0.01044595
224	0x3a3466f1	0.00068817945
225	0x3cb2a124	0.021805353
226	0x3b114fa7	0.002217272
227	0xbc0eec50	-0.0087233335
228	0xbcd70323	-0.026246613
229	0xbc7d67b0	-0.015466616
230	0xbcc2dd0d	-0.023787046
231	0x3c00958a	0.007848153
232	0xbbbda302	-0.0057872543
233	0xbc7feec0	-0.015620887
234	0xbcbe2e51	-0.023215445
235	0xbcb7fd72	-0.02245972
236	0xbb88a316	-0.004169832
237	0x3b4d5cd2	0.0031335843
238	0x3caf90b1	0.021431299
239	0xba85f289	-0.0010219376
240	0x3d0f2b5f	0.03495347
241	0xbcf24f80	-0.029578924
242	0xbcf798f9	-0.03022431
243	0xbc174d20	-0.009234697
244	0xbc34b2e0	-0.011028975
245	0xbd11a43a	-0.03555701
246	0xbccfd0ba	-0.025368083
247	0xbc45ca2b	-0.012072126
248	0x3ca6b228	0.020348623
249	0x3c1f6d57	0.0097306585
250	0xbc4706b0	-0.0121475905
251	0x3c98b504	0.018641002
252	0xbc534da7	-0.012896932
253	0xbc57f37c	-0.01318061
254	0x3d0e740f	0.03477865
255	0x3d0d1b2c	0.03444974

hidden.weight f4 [64, 256]
0	0x3d622702	0.055212982
1	0x3d5f691e	0.054543607
2	0x3d232aa7	0.0398356
3	0xbd43d2e6	-0.04780855
4	0x3cbe3b6d	0.023221696
5	0x3d224fcc	0.03962688
6	0x3a80e128	0.0009832727
7	0x3bcd9ee2	0.006275044
8	0x3ccc11d7	0.02491085
9	0xbd879238	-0.06619686
10	0xbb6aaea9	-0.0035809672
11	0x3d4249bd	0.047433604
12	0x3cd29f0e	0.025710609
13	0x3d2d9d15	0.042386133
14	0xbcc5b860	-0.024135768
15	0x3d16c977	0.036813226
16	0x3d3238ad	0.04351108
17	0x3b1d91ca	0.0024043196
18	0x3d2cf74e	0.042228036
19	0x3cc213b7	0.023691041
20	0xbd845ed1	-0.06463397
21	0x3d3f4708	0.0466986
22	0xbc147f0e	-0.009063495
23	0x3caf9469	0.021433072
24	0xbd3a3a54	-0.045465782
25	0xbc1e0fc8	-0.009647317
26	0xbd16103f	-0.036636587
27	0x3d17eafd	0.037089337
28	0xbd6a8816	-0.057258688
29	0x3cbfbd26	0.023405623
30	0x3d2d97f4	0.042381242
31	0x3cd54f82	0.026038889
32	0xbd15fef6	-0.036620103
33	0xbbcdc209	-0.0062792343
34	0x3d335e58	0.043791145
35	0xbcea980d	-0.028636957
36	0x3d2b9219	0.041887376
37	0xbca012b3	-0.019540166
38	0xbccbbbad	-0.024869764
39	0x3c3d8544	0.0115674175
40	0xbcc69b11	-0.024243863
41	0xbd5bf12d	-0.0536968
42	0x3c51073b	0.0127580715
43	0xbd1ce274	-0.0383019
44	0xbd15499b	-0.03644715
45	0x3cd1f42a	0.025629122
46	0x3d6cf4b7	0.057850566
47	0x3b9d33ba	0.004797426
48	0xbcbcdb63	-0.02305383
49	0x3ba6306a	0.0050716894
50	0x3d5f7717	0.054556932
51	0x3d3d00ec	0.046143457
52	0xbd7a0709	-0.061041865
53	0x3d0692f5	0.032854993
54	0x3cf2ff7c	0.02966284
55	0x3ce0aef1	0.027427169
56	0x3d1374b5	0.035999972
57	0x3d61abb7	0.0550954
58	0x3d3a87b7	0.045539584
59	0x3d6afdf7	0.057371106
60	0xbd681169	-0.05665723
61	0xbcb61161	-0.022225084
62	0xbcb6fcd3	-0.022337353
63	0xbc1c98ce	-0.009557916
64	0xbc2253f6	-0.009907713
65	0x3c6f5aee	0.014609082
66	0x3d0f812b	0.035035294
67	0x3d5c47d8	0.053779453
68	0xbcb268db	-0.021778515
69	0x3c9c8f15	0.019111196
70	0x3d36dd97	0.04464492
71	0x3cc5e45c	0.024156742
72	0xb9ab32f2	-0.0003265362
73	0xbd1f7c4b	-0.038936894
74	0x3c3700aa	0.011169592
75	0xbcac3049	-0.021019118
76	0x3d7e1dfc	0.062040314
77	0xbb4f2bc6	-0.0031611784
78	0x3d1eacdc	0.03873907
79	0x3ba1f1b8	0.004942145
80	0xbccf9cfc	-0.02534341
81	0xbb6e7d42	-0.0036390577
82	0x396627a2	0.00021949274
83	0xbcc281e2	-0.023743574
84	0xbce343a8	-0.027742222
85	0x3ce573ec	0.028009377
86	0x3d3ebeae	0.046568565
87	0x3cc43adc	0.023953848
88	0xbd20289e	-0.039101236
89	0xbd60317a	-0.054734685
90	0x3d587231	0.052843276
91	0x3d59066d	0.052984644
92	0x3c8d9581	0.017283203
93	0x3d17a0fb	0.037018757
94	0x3c212c7e	0.009837268
95	0x3d308177	0.043092217
96	0xbd34ba33	-0.044122886
97	0x3d6900d8	0.05688557
98	0x3c9f279d	0.019428069
99	0xbc76e7aa	-0.015069881
100	0xbc6f7322	-0.014614852
101	0x3d1e0dfc	0.038587555
102	0xbd2d1cc2	-0.042263754
103	0x3ce90267	0.028443528
104	0x3d47ee5f	0.048811313
105	0x3d847106	0.0646687
106	0x3ca62040	0.02027905
107	0xbc93319c	-0.017967992
108	0x3c01dbb2	0.007925915
109	0x3d6ad601	0.057332996
110	0xbd0c4eed	-0.034254957
111	0xbb5d61bf	-0.0033780185
112	0x3cefcfd1	0.0292739
113	0x3d2a7076	0.041611157
114	0xbc292984	-0.0103248395
115	0xbcafd8a9	-0.021465616
116	0xbd6e8514	-0.058232382
117	0xbc99a52b	-0.018755516
118	0x3d28f9da	0.041253902
119	0x3d635303	0.055499088
120	0x3c7fbcbc	0.015608963
121	0x3ca8fdc9	0.020628827
122	0xbc063e40	-0.0081935525
123	0x3c201201	0.0097699175
124	0xbcad32e0	-0.021142423
125	0x3d0b9ec7	0.03408697
126	0xbd115250	-0.03547889
127	0xbcc5d146	-0.02414764
128	0x3cf51a22	0.029919688
129	0xbd721848	-0.059105188
130	0xbd0a26ff	-0.033728596
131	0xbce60de1	-0.02808279
132	0x3c5ab2ca	0.013348291
133	0x3cfa2b37	0.030538185
134	0xbd109a45	-0.035303373
135	0xbd4ea506	-0.050450347
136	0xbd1dc6ec	-0.038519785
137	0x3d17bbe7	0.037044432
138	0x3c9d944f	0.019235758
139	0x3d7dff44	0.06201102
140	0xbceee14f	-0.02916017
141	0xbc983df3	-0.018584227
142	0x3a97e877	0.0011589666
143	0xbd5cdf18	-0.053923696
144	0xbd12884b	-0.03577451
145	0xbc4fc2af	-0.0126806935
146	0x3d1aa2db	0.037752967
147	0xbc7e815a	-0.0155337695
148	0xbceacd02	-0.028662208
149	0x3a6db429	0.00090676785
150	0xbca35d45	-0.019941935
151	0x3d5665e0	0.05234325
152	0x3c402f47	0.011730022
153	0xbd49a708	-0.04923156
154	0x3bbbd4a3	0.0057321354
155	0x3d26ff71	0.04077095
156	0xbc331e83	-0.0109325675
157	0xbbfc3787	-0.007697049
158	0x3d3a4f00	0.045485497
159	0x3cb6c8f4	0.022312619
160	0x3c21f64c	0.009885382
161	0xbd66c364	-0.056338683
162	0xbd792d76	-0.06083437
163	0xbbe108a1	-0.0068674837
164	0xbc8aecc0	-0.016958594
165	0x3844232e	4.6762805e-05
166	0xbd331f2e	-0.043730907
167	0x3d89dadd	0.06731198
168	0xbc02bf88	-0.007980235
169	0xbd1073c4	-0.035266653
170	0xbd1c43a2	-0.038150437
171	0x3ca8c20c	0.020600341
172	0xbb8f8917	-0.004380356
173	0xbd59fb90	-0.053218424
174	0x3d301b9b	0.042995077
175	0x3d0b7158	0.03404364
176	0x3d0ad646	0.033895753
177	0x3a987c48	0.0011633718
178	0x3d754abe	0.059885733
179	0xbc241a80	-0.010016084
180	0xbcfc8c43	-0.0308286
181	0xbc4fe87c	-0.012689706
182	0xbd45ae32	-0.04826183
183	0xbd0c91f5	-0.034318883
184	0x3c8f54bc	0.01749646
185	0x3c1d4836	0.009599736
186	0xbcb3378b	-0.02187707
187	0x3ca6689a	0.02031355
188	0x3c6cc4e6	0.014451241
189	0x3cc1f45a	0.023676086
190	0xbced65b2	-0.028979156
191	0xbd4ab84f	-0.049492177
192	0xbd817e5d	-0.0632293
193	0xbc85cc66	-0.016332816
194	0xbca9ffb4	-0.020751812
195	0x3d688ff5	0.056777913
196	0x3d47a936	0.048745357
197	0xbc26bf7c	-0.010177489
198	0xbd0556c0	-0.032553434
199	0xbd5af131	-0.053452674
200	0x3d22cc01	0.039745335
201	0x3c9ebd14	0.019377269
202	0x3c9c1b6e	0.019056048
203	0xbd660f9d	-0.056167234
204	0x3cd32a72	0.025777075
205	0x3d6f98ea	0.05849544
206	0x3c9775ea	0.018488843
207	0xbd2d0d9d	-0.04224931
208	0x3d603776	0.05474039
209	0x3d3b5988	0.04573968
210	0x3d6ad23c	0.0573294
211	0x3d6c28a1	0.057655934
212	0xbccf8060	-0.025329769
213	0xbc75823d	-0.0149846645
214	0xbd2d17a5	-0.042258877
215	0xbc22b0af	-0.00992982
216	0x3d6b2519	0.057408426
217	0xbd44d2c8	-0.04805258
218	0xbd44c7de	-0.04804217
219	0xbb82a8b8	-0.003987398
220	0x3d0e72ba	0.03477738
221	0xbcfb1e94	-0.03065423
222	0x3d28e251	0.041231457
223	0x3b8ebcd4	0.004356006
224	0x3b96fe81	0.004607976
225	0xbd53834e	-0.051638894
226	0x3d7df1c4	0.061998144
227	0x3d1fe005	0.039032
228	0xbd15e9ac	-0.0365998
229	0x3b7ff49b	0.0039055708
230	0x3cd91f3b	0.02650415
231	0x3cf5d908	0.030010715
232	0xbd0c16c7	-0.03420141
233	0xbd0abfbd	-0.033874262
234	0x3d5b5feb	0.05355827
235	0xbd50ba10	-0.050958693
236	0x3d2b4eef	0.041823324
237	0x3d74d92a	0.059777416
238	0x3c8cce9d	0.017188365
239	0xbc94677e	-0.018115755
240	0xbcd79325	-0.026315281
241	0xbd1febd3	-0.03904326
242	0xbd623dd3	-0.05523474
243	0xbc8b6c42	-0.017019395
244	0x3d40108f	0.04689079
245	0x3c875318	0.016519114
246	0xbd08667d	-0.033300865
247	0xbd136144	-0.03598143
248	0x3ccaee23	0.024771756
249	0x3cab1ff5	0.020889262
250	0x3ae72a1e	0.0017636453
251	0x3d0c9bed	0.03432839
252	0x3d284a96	0.041086756
253	0x3ca95785	0.020671615
254	0xbbac8639	-0.005265024
255	0x3d264dc0	0.040601492

hidden.bias f4 [64]
0	0x3d4cdb62	0.050013907
1	0xbd0dad3b	-0.034589034
2	0xbcc9ae56	-0.024619263
3	0x3cf885fd	0.030337328
4	0xbd635da2	-0.055509217
5	0xbd36d9c2	-0.044641264
6	0x3d66ec59	0.056377742
7	0x3d260aaa	0.040537514
8	0x3bd6a8ac	0.006550869
9	0xbd5b80f7	-0.053589787
10	0xbbe02377	-0.0068401652
11	0xbd194c35	-0.037426192
12	0x3c340a55	0.0109887915
13	0xbd69021a	-0.05688677
14	0x3c3498ec	0.011022788
15	0x3c8d0011	0.017211946
16	0xbd3fd71d	-0.046836007
17	0x3d709fd7	0.058746185
18	0x3c688732	0.014192389
19	0x3c542cf0	0.012950167
20	0x3c7ad569	0.01530967
21	0x3ca7a4fc	0.020464413
22	0xbc7bb965	-0.015364026
23	0xbcd8b10a	-0.026451606
24	0x3d79bfff	0.060974117
25	0xbc9160b1	-0.017746301
26	0xbd3f49f0	-0.04670137
27	0xbc821def	-0.015883414
28	0x3d7a0a81	0.061045174
29	0x3ca7000a	0.02038576
30	0x3a998a1c	0.0011714133
31	0x3ce60111	0.02807668
32	0xbd092b66	-0.033488654
33	0xbc0a8007	-0.008453376
34	0xbc84d070	-0.016212672
35	0x3d68754b	0.056752484
36	0xbd0d1d66	-0.034451865
37	0xbc84f85f	-0.016231714
38	0x3d4ae2a5	0.04953255
39	0xbb7d2e7a	-0.0038632439
40	0x3cf4ec1d	0.029897744
41	0x3cb77340	0.022393823
42	0x3cd6b497	0.026209159
43	0xbca06872	-0.019581053
44	0x3d05dae8	0.03267947
45	0xbd7886da	-0.06067548
46	0x3ce01c5c	0.027357273
47	0x3d7b5568	0.061360747
48	0xbd7398b6	-0.05947181
49	0xbd6617ca	-0.05617503
50	0x3d5da487	0.054111984
51	0xbc42e258	-0.011894785
52	0x3c5b1909	0.013372668
53	0xbd4f6470	-0.050632894
54	0x3cb5f8d3	0.022213375
55	0xbcdb1880	-0.026745081
56	0x3c285ac5	0.010275547
57	0x3bd66936	0.006543304
58	0x3be4fcd7	0.0069881487
59	0x3d2d4489	0.04230169
60	0x3cca5915	0.02470068
61	0x3ce31613	0.027720487
62	0x3d1d0be9	0.038341437
63	0xbd48c6d7	-0.049017753

output.weight f4 [10, 64]
0	0x3dad2d50	0.08455908
1	0xbd48dabe	-0.049036734
2	0x3d15cc49	0.036571775
3	0xbc31a995	-0.010843654
4	0x3d40867d	0.047003258
5	0x3da7e665	0.08198241
6	0x3c578cc8	0.013156123
7	0x3bb44067	0.0055008414
8	0xbd958934	-0.0730156
9	0x3dc7352e	0.0972694
10	0xbdc09d30	-0.09404981
11	0xbdfc9533	-0.12333145
12	0xbd98bbd5	-0.07457701
13	0x3df2b19c	0.118502825
14	0xbcb8c8b6	-0.022556644
15	0xbdf172fe	-0.11789511
16	0xbcfa513a	-0.03055631
17	0x3db9b1c3	0.090671085
18	0xbd53a4e8	-0.05167094
19	0x3d4f6f0c	0.050643012
20	0xbdb6db5f	-0.089285605
21	0xbd11296d	-0.035439897
22	0xbe10756e	-0.14107296
23	0x3da2bc8f	0.07946121
24	0x3dc30695	0.0952274
25	0xbddc3f1f	-0.10754227
26	0xbd5c7b9d	-0.053828824
27	0x3d06e68e	0.032934718
28	0x3dc2145a	0.09476538
29	0x3cfd3fbf	0.030914186
30	0xbcf58c72	-0.029974196
31	0xbdfbccde	-0.12294935
32	0x3c650a3b	0.01397949
33	0xbdd92ae4	-0.10603884
34	0xbdf77f12	-0.120847836
35	0x3deba11b	0.11505338
36	0x3d9afff1	0.07568348
37	0x3d9289e2	0.07155205
38	0x3d8cbb8b	0.068717085
39	0xbda5daf1	-0.080984004
40	0x3d996fa4	0.07491997
41	0x3dbbc536	0.091684744
42	0x3d30fc5a	0.04320941
43	0x3d2f0e59	0.042738292
44	0x3dc66b37	0.09688418
45	0x3d25136b	0.04030172
46	0xbdb4db54	-0.08830896
47	0xbd34b1d8	-0.044114918
48	0x388d671d	6.74261e-05
49	0x3dd16f3a	0.10226293
50	0xbc8a987f	-0.016918419
51	0xbdd6b457	-0.10483616
52	0xbdaa5023	-0.08316066
53	0x3dbb8860	0.09156871
54	0x3cd10bde	0.025518354
55	0x3d66131e	0.056170575
56	0x3c021feb	0.00794218
57	0x3d0697cc	0.03285961
58	0xbcbd1a86	-0.023083936
59	0xbdcefc72	-0.10106744
60	0xbd943c78	-0.07238096
61	0xbd0078d2	-0.031365223
62	0x3dec0f55	0.11526362
63	0x3dd9584c	0.106125444
64	0xbdcaa9d0	-0.098956704
65	0xbc7172e4	-0.014736865
66	0xbc58824c	-0.013214659
67	0x3d59924c	0.053118035
68	0xbdae1bbf	-0.08501386
69	0x3d394f12	0.045241423
70	0x3d94d108	0.07266432
71	0x3bf1c8da	0.0073786797
72	0xbd97b7c1	-0.07408095
73	0xbdc8a536	-0.097971365
74	0x3da90fcb	0.082549654
75	0x3da70cd2	0.08156742
76	0x3dac3d44	0.08410123
77	0x3de1fdc7	0.11034732
78	0x3ddfed85	0.10933975
79	0x3cc0d6af	0.02353987
80	0x3db52665	0.08845214
81	0xbd5a9493	-0.053364348
82	0xbdff9a51	-0.124806054
83	0xbbb439d6	-0.0055000586
84	0x3cb26285	0.021775493
85	0xbc93e3fc	-0.018053047
86	0xbcae37f9	-0.021266924
87	0xbd62eb78	-0.05540034
88	0x3d690b5a	0.05689559
89	0x3d78875f	0.060675975
90	0xbc041a69	-0.008062937
91	0x3d495ea4	0.049162522
92	0xbcf3ce1d	-0.029761368
93	0xbd02ae15	-0.0319043
94	0xbdee18c2	-0.11625816
95	0xbce04d03	-0.027380472
96	0x3d26c656	0.04071649
97	0xbcce8aa4	-0.025212593
98	0xbdd26d70	-0.1027478
99	0x3dba14c0	0.09085989
100	0xbdc58c0d	-0.09645853
101	0x3dbaaf4d	0.09115467
102	0x3d2dd8e6	0.04244318
103	0xbd9bc981	-0.07606793
104	0xbd0a18a9	-0.033714924
105	0xbad4bc4e	-0.0016230436
106	0x3dc901c7	0.09814792
107	0x3c431866	0.0119076725
108	0x3c3ab4ae	0.011395616
109	0xbd9421b0	-0.07232988
110	0x3cc26fb0	0.023734897
111	0xbcc7d605	-0.024394045
112	0x3dd50b1e	0.10402511
113	0x3d966d38	0.073450506
114	0x3d39629c	0.045260057
115	0x3de3c2fd	0.111211754
116	0x3d7c39e2	0.06157864
117	0x3de583c3	0.11206772
118	0xbcd872c6	-0.026421916
119	0xbdcc0cf4	-0.09963408
120	0xbd9e2444	-0.07721761
121	0xbd8dd967	-0.06926232
122	0xbd9abb88	-0.075553
123	0xbdc8f1b4	-0.09811726
124	0xbd82b5d6	-0.06382339
125	0xbe007391	-0.12544085
126	0x3cb88e2f	0.022528736
127	0xbce4f040	-0.027946591
128	0x3dcb06fe	0.09913443
129	0x3e02072c	0.12698048
130	0xbd3c65f1	-0.045995656
131	0xbc635532	-0.013875293
132	0x3d62b347	0.055346753
133	0xbde40fce	-0.11135827
134	0x3d953bbf	0.07286786
135	0xbd9cf08f	-0.076630704
136	0xbd64d9f7	-0.05587193
137	0x3dddd653	0.10831895
138	0xbcc18aee	-0.023625817
139	0x3daec2ce	0.0853325
140	0xbd11e6fd	-0.03562068
141	0xbda66b9f	-0.08125996
142	0x3c754281	0.014969469
143	0xbd591cec	-0.053006098
144	0xbd6738b7	-0.056450572
145	0xbd87e5f1	-0.06635655
146	0x3c937700	0.01800108
147	0xbd5fe43a	-0.054661013
148	0x3d7c28ba	0.061562277
149	0xbc152cd9	-0.009104931
150	0xbcc5de5a	-0.024153877
151	0x3ca91059	0.020637678
152	0x3d3b71f2	0.045762964
153	0xbd1fd545	-0.03902175
154	0x3ce087b4	0.027408458
155	0x3dcc1aed	0.09966073
156	0xbd808a69	-0.062764
157	0xbd1cf455	-0.03831895
158	0xbdbc32cd	-0.09189377
159	0xbd978dd1	-0.07400096
160	0x3de55280	0.11197376
161	0x3cf4c021	0.02987677
162	0xbdac4e55	-0.08413378
163	0x3ca684cf	0.020327
164	0x3dc9a8e9	0.0984667
165	0x3dd06c46	0.101769015
166	0xbc15f098	-0.0091516
167	0x3da5f6f3	0.081037425
168	0x3d652113	0.055939745
169	0xbcbc2c6f	-0.022970406
170	0xbd83f51a	-0.06443234
171	0xbd8bd305	-0.06827358
172	0x3db29e05	0.08721546
173	0xbde0c13b	-0.10974356
174	0xbdd6e400	-0.10492706
175	0xbdf1141d	-0.117714144
176	0xbacec4a6	-0.0015775159
177	0xbc084007	-0.008316047
178	0x3dc667f7	0.096877985
179	0xbd94e852	-0.07270874
180	0xbc225e56	-0.009910187
181	0xbddd51c5	-0.10806612
182	0x3d330c0e	0.043712668
183	0xbd5b20f0	-0.05349821
184	0x3a5a9e46	0.00083396246
185	0xbd1525be	-0.036412947
186	0x3d6d2e07	0.057905223
187	0x3d9bcacb	0.07607039
188	0x3d30770f	0.043082293
189	0xbd08dcd9	-0.03341374
190	0x3dd0b930	0.10191572
191	0xbdbb68c0	-0.09150839
192	0xbd4b5f79	-0.049651597
193	0x3d219d41	0.03945661
194	0x3b071c44	0.0020616213
195	0x3c03681e	0.008020429
196	0x3d02096b	0.031747263
197	0x3c3e5ab8	0.011618309
198	0xbda736d1	-0.08164752
199	0xbd716829	-0.058937225
200	0xbc85cc07	-0.01633264
201	0xbd42e55c	-0.047582015
202	0x3d7b235e	0.061313026
203	0x3dc39923	0.09550693
204	0x3be1fdaa	0.006896694
205	0x3cfb2e9f	0.03066188
206	0xbcb9adef	-0.022665946
207	0xbd9541c8	-0.072879374
208	0xbcd956fd	-0.026530737
209	0x3d03cc64	0.032177344
210	0xbd7eecd1	-0.062237564
211	0xbd1fae29	-0.03898445
212	0xbdb91808	-0.09037787
213	0x3d586581	0.052831177
214	0x3c9b7b7d	0.018979782
215	0x3e0542d2	0.13013771
216	0xbc85f404	-0.016351707
217	0xbddadf61	-0.106871374
218	0x3ce25ffa	0.027633656
219	0xbcb52529	-0.022112446
220	0xbdf202b0	-0.11816919
221	0x3ce5d556	0.028055828
222	0xbce9d14e	-0.028542187
223	0x3c6a96f6	0.014318218
224	0xbd73c5d3	-0.05951483
225	0x3ddf5f38	0.109068334
226	0xbda80c59	-0.0820548
227	0xbd68994f	-0.05678683
228	0xbd457379	-0.048205826
229	0xbdaacb97	-0.08339613
230	0x3d20db65	0.03927173
231	0x3d96b470	0.073586345
232	0x3da8262d	0.082104065
233	0x3dc12d6d	0.094324924
234	0xbd6f63a6	-0.05844464
235	0x3d4e5a53	0.05037911
236	0x3db1809c	0.086671084
237	0x3d159111	0.0365153
238	0xbd56be4a	-0.052427568
239	0x3d938a11	0.072040685
240	0xbdae9f9a	-0.08526535
241	0x3d6ceb5c	0.057841644
242	0xbcd5bd35	-0.026091198
243	0xbdabd03b	-0.08389326
244	0xbce7ffb9	-0.02832018
245	0x3d501bcb	0.050807755
246	0xbd0d8081	-0.03454638
247	0xbdaf95a1	-0.08573461
248	0xbda7ab3f	-0.081869595
249	0xbcefe880	-0.02928567
250	0x3dcdd2c7	0.10049968
251	0xbd3050eb	-0.04304592
252	0xbd98732c	-0.07443842
253	0x3dea4c91	0.11440385
254	0xbda7c5f3	-0.08192053
255	0xbcdfb67c	-0.027308695

output.bias f4 [10]
0	0xbdc1646c	-0.09442982
1	0x3d59d1ca	0.053178586
2	0xbc2d03f4	-0.0105600245
3	0x3dcc3c27	0.09972411
4	0xbcb51b35	-0.0221077
5	0xba357d93	-0.0006923314
6	0xbcd886d0	-0.026431471
7	0x3d1f0ab5	0.03882857
8	0xbdf4edae	-0.11959396
9	0xbd36c4b8	-0.0446212
